model/genstorm_tensorflow-lite-int8-quantized-model.lite (tflite, 10000 bytes, 3 tensors)

sequential/y_pred/MatMul i1 [5, 800] scale=0.017897718 zero_point=0
000000 04 f1 ef fe fe 07 07 01 12 0b fd ff 00 0b f5 f8
       0.07159087 -0.26846576 -0.3042612 -0.035795435 -0.035795435 0.12528402 0.12528402 0.017897718 0.32215893 0.19687489 -0.053693153 -0.017897718 0.0 0.19687489 -0.19687489 -0.14318174
000010 09 fa f6 fe 00 05 03 09 14 0a 03 fd ff fc f8 d8
       0.16107947 -0.107386306 -0.17897718 -0.035795435 0.0 0.08948859 0.053693153 0.16107947 0.35795435 0.17897718 0.053693153 -0.053693153 -0.017897718 -0.07159087 -0.14318174 -0.7159087
000020 00 fd f2 f6 fe 00 01 03 03 0b fd 06 ff 04 f7 c3
       0.0 -0.053693153 -0.25056803 -0.17897718 -0.035795435 0.0 0.017897718 0.053693153 0.053693153 0.19687489 -0.053693153 0.107386306 -0.017897718 0.07159087 -0.16107947 -1.0917608
000030 f1 fa ff f5 ff 0f 00 01 f7 01 fd 02 ff 07 fb d0
       -0.26846576 -0.107386306 -0.017897718 -0.19687489 -0.017897718 0.26846576 0.0 0.017897718 -0.16107947 0.017897718 -0.053693153 0.035795435 -0.017897718 0.12528402 -0.08948859 -0.85909045
000040 f3 f7 f3 f8 fd fe fd 02 08 06 fa 01 05 ff f4 f9
       -0.23267034 -0.16107947 -0.23267034 -0.14318174 -0.053693153 -0.035795435 -0.053693153 0.035795435 0.14318174 0.107386306 -0.107386306 0.017897718 0.08948859 -0.017897718 -0.21477261 -0.12528402
000050 fd e9 ef fa fc fe 01 fe 0b fe 0a f8 ff ff f3 fc
       -0.053693153 -0.4116475 -0.3042612 -0.107386306 -0.07159087 -0.035795435 0.017897718 -0.035795435 0.19687489 -0.035795435 0.17897718 -0.14318174 -0.017897718 -0.017897718 -0.23267034 -0.07159087
000060 f8 ee f7 f4 f6 fd ff ff 13 00 01 03 0a 04 ed fb
       -0.14318174 -0.32215893 -0.16107947 -0.21477261 -0.17897718 -0.053693153 -0.017897718 -0.017897718 0.34005663 0.0 0.017897718 0.053693153 0.17897718 0.07159087 -0.34005663 -0.08948859
000070 0c fc ff fc 00 04 08 01 08 0c 02 00 fd ff fe f6
       0.21477261 -0.07159087 -0.017897718 -0.07159087 0.0 0.07159087 0.14318174 0.017897718 0.14318174 0.21477261 0.035795435 0.0 -0.053693153 -0.017897718 -0.035795435 -0.17897718
000080 01 f9 01 0b fe fe 01 0b 13 13 05 03 04 02 03 fe
       0.017897718 -0.12528402 0.017897718 0.19687489 -0.035795435 -0.035795435 0.017897718 0.19687489 0.34005663 0.34005663 0.08948859 0.053693153 0.07159087 0.035795435 0.053693153 -0.035795435
000090 04 fa f5 fb 00 04 02 0a 08 05 fc fd fb 05 ff ef
       0.07159087 -0.107386306 -0.19687489 -0.08948859 0.0 0.07159087 0.035795435 0.17897718 0.14318174 0.08948859 -0.07159087 -0.053693153 -0.08948859 0.08948859 -0.017897718 -0.3042612
0000a0 f9 fe 00 f6 00 02 03 06 f0 07 04 00 00 0b f8 06
       -0.12528402 -0.035795435 0.0 -0.17897718 0.0 0.035795435 0.053693153 0.107386306 -0.28636348 0.12528402 0.07159087 0.0 0.0 0.19687489 -0.14318174 0.107386306
0000b0 f6 fd f2 07 06 07 ff 03 0a 0b ff 04 05 04 fd e3
       -0.17897718 -0.053693153 -0.25056803 0.12528402 0.107386306 0.12528402 -0.017897718 0.053693153 0.17897718 0.19687489 -0.017897718 0.07159087 0.08948859 0.07159087 -0.053693153 -0.5190338
0000c0 0f f1 f7 f1 ff 09 fc 05 ff fe ff 04 fd ff fa f3
       0.26846576 -0.26846576 -0.16107947 -0.26846576 -0.017897718 0.16107947 -0.07159087 0.08948859 -0.017897718 -0.035795435 -0.017897718 0.07159087 -0.053693153 -0.017897718 -0.107386306 -0.23267034
0000d0 02 02 00 04 ff 09 03 0b 04 0d fe 0a 02 03 03 f2
       0.035795435 0.035795435 0.0 0.07159087 -0.017897718 0.16107947 0.053693153 0.19687489 0.07159087 0.23267034 -0.035795435 0.17897718 0.035795435 0.053693153 0.053693153 -0.25056803
0000e0 f6 08 0a f6 fa 07 ff 02 0c 18 ff ff 06 04 fc f5
       -0.17897718 0.14318174 0.17897718 -0.17897718 -0.107386306 0.12528402 -0.017897718 0.035795435 0.21477261 0.42954522 -0.017897718 -0.017897718 0.107386306 0.07159087 -0.07159087 -0.19687489
0000f0 fd f8 fc f1 00 07 fd fb 12 1a 02 fe 04 08 00 f3
       -0.053693153 -0.14318174 -0.07159087 -0.26846576 0.0 0.12528402 -0.053693153 -0.08948859 0.32215893 0.46534067 0.035795435 -0.035795435 0.07159087 0.14318174 0.0 -0.23267034

sequential/conv1d_1/Conv1D i1 [16, 1, 3, 8]
000000 16 0d 39 fb f3 e6 1c 16 f7 12 0f ea cf ff 62 da
       22 13 57 -5 -13 -26 28 22 -9 18 15 -22 -49 -1 98 -38
000010 12 21 1f f2 b7 fa 7f 0d e4 10 f4 35 10 c4 81 0a
       18 33 31 -14 -73 -6 127 13 -28 16 -12 53 16 -60 -127 10
000020 e6 fa de 04 18 ce 9e 20 14 0b f9 c1 ea af 99 fd
       -26 -6 -34 4 24 -50 -98 32 20 11 -7 -63 -22 -81 -103 -3
000030 ed 08 e2 04 08 a2 81 09 17 05 0b 28 1c 8a 96 1c
       -19 8 -30 4 8 -94 -127 9 23 5 11 40 28 -118 -106 28
000040 dd 0f 03 e8 f2 a3 b1 fa 09 f2 fd fb 0f bb 81 0b
       -35 15 3 -24 -14 -93 -79 -6 9 -14 -3 -5 15 -69 -127 11
000050 fd fd ef 26 0b 8f 82 03 eb 0b ec ff 0a c1 b6 0b
       -3 -3 -17 38 11 -113 -126 3 -21 11 -20 -1 10 -63 -74 11
000060 c1 e9 fd e5 4c f5 89 13 c5 ee f7 e7 42 5b af fc
       -63 -23 -3 -27 76 -11 -119 19 -59 -18 -9 -25 66 91 -81 -4
000070 06 06 35 ea 7f 68 ef 0f f0 06 3c 38 d3 a7 eb 47
       6 6 53 -22 127 104 -17 15 -16 6 60 56 -45 -89 -21 71
000080 eb e4 e9 0b ca 55 d8 dc 06 09 32 06 81 46 f6 36
       -21 -28 -23 11 -54 85 -40 -36 6 9 50 6 -127 70 -10 54
000090 3d e6 17 07 94 ab ef 00 0f be 29 9e d9 b1 f3 28
       61 -26 23 7 -108 -85 -17 0 15 -66 41 -98 -39 -79 -13 40
0000a0 c8 81 b2 1b e3 c4 a1 a1 e2 35 12 f5 81 34 71 16
       -56 -127 -78 27 -29 -60 -95 -95 -30 53 18 -11 -127 52 113 22
0000b0 f7 32 3b 08 92 27 62 18 e1 10 f8 fd a4 06 75 13
       -9 50 59 8 -110 39 98 24 -31 16 -8 -3 -92 6 117 19
0000c0 3c 91 48 0b ce 17 bb 21 fe 81 f4 12 c6 fd 86 26
       60 -111 72 11 -50 23 -69 33 -2 -127 -12 18 -58 -3 -122 38
0000d0 21 84 40 ff c8 51 b4 f0 27 8d 18 f3 b6 41 e7 14
       33 -124 64 -1 -56 81 -76 -16 39 -115 24 -13 -74 65 -25 20
0000e0 13 8a fc d8 c1 10 d1 08 20 81 f4 f4 8e 2d d7 1a
       19 -118 -4 -40 -63 16 -47 8 32 -127 -12 -12 -114 45 -41 26
0000f0 a4 81 a7 fe 0f a2 0e e1 89 8e c2 d5 c7 89 95 1a
       -92 -127 -89 -2 15 -94 14 -31 -119 -114 -62 -43 -57 -119 -107 26

sequential/conv1d/Conv1D i1 [8, 1, 3, 20]
000000 00 10 ef f4 cd ed 13 f3 e6 ec 05 e2 14 e3 e0 08
       0 16 -17 -12 -51 -19 19 -13 -26 -20 5 -30 20 -29 -32 8
000010 00 06 08 e5 f4 f2 f4 eb e7 c2 af 84 b3 87 81 a9
       0 6 8 -27 -12 -14 -12 -21 -25 -62 -81 -124 -77 -121 -127 -87
000020 a8 91 b6 9e d4 d5 02 12 0c 0e d8 0a e9 eb 27 16
       -88 -111 -74 -98 -44 -43 2 18 12 14 -40 10 -23 -21 39 22
000030 f9 f4 1f 23 e3 23 18 21 2a 25 12 22 81 a7 fb 4c
       -7 -12 31 35 -29 35 24 33 42 37 18 34 -127 -89 -5 76
000040 08 55 ef 20 05 e7 b7 eb 71 1b 53 1d e7 ee 30 41
       8 85 -17 32 5 -25 -73 -21 113 27 83 29 -25 -18 48 65
000050 0b e4 30 dd be 8b a9 ed 08 2d 10 c0 f3 25 2e 47
       11 -28 48 -35 -66 -117 -87 -19 8 45 16 -64 -13 37 46 71
000060 0c dd d5 86 cf cd e4 3a 32 5f 38 21 0a d9 bc fd
       12 -35 -43 -122 -49 -51 -28 58 50 95 56 33 10 -39 -68 -3
000070 6b 1d 01 36 1a dc eb 05 1d 3a a2 d0 95 97 fe 0e
       107 29 1 54 26 -36 -21 5 29 58 -94 -48 -107 -105 -2 14
000080 ab e7 f8 90 fe 81 a0 0a 09 a3 16 f9 51 f9 fc 10
       -85 -25 -8 -112 -2 -127 -96 10 9 -93 22 -7 81 -7 -4 16
000090 26 c3 a8 98 e9 ab cd 00 9e 22 3a b3 11 a4 d6 be
       38 -61 -88 -104 -23 -85 -51 0 -98 34 58 -77 17 -92 -42 -66
0000a0 fc e3 e4 ad e5 d9 f6 aa 18 92 27 89 a8 e3 27 05
       -4 -29 -28 -83 -27 -39 -10 -86 24 -110 39 -119 -88 -29 39 5
0000b0 87 aa 12 19 da 0f 51 c0 0d 81 dd ce 53 2a 3f ff
       -121 -86 18 25 -38 15 81 -64 13 -127 -35 -50 83 42 63 -1
0000c0 fa 02 ff 12 6a 25 0f df f2 26 3b 21 e9 0b 20 c6
       -6 2 -1 18 106 37 15 -33 -14 38 59 33 -23 11 32 -58
0000d0 39 2a 0c 19 54 32 1e 1e f4 ec b8 17 c3 e9 3f da
       57 42 12 25 84 50 30 30 -12 -20 -72 23 -61 -23 63 -38
0000e0 ee 9e d9 b4 5b 74 21 1d ef d0 1b f9 6c 42 fb ef
       -18 -98 -39 -76 91 116 33 29 -17 -48 27 -7 108 66 -5 -17
0000f0 04 b3 cc 18 b2 e1 dc 0b ca cb 9e ec f1 eb c7 05
       4 -77 -52 24 -78 -31 -36 11 -54 -53 -98 -20 -15 -21 -57 5
