model/genstorm_classifier-tensorflow-lite-float32-model.lite (tflite, 23440 bytes, 6 tensors)

sequential/conv1d/BiasAdd/ReadVariableOp f4 [8]
0	0x3e158c88	0.1460439
1	0xbeb24ab5	-0.34822622
2	0xbdbcc254	-0.09216753
3	0xbf11abd5	-0.5690282
4	0x3dfe4fdb	0.12417575
5	0x3e98aaf0	0.29817915
6	0x3d95ef02	0.07320978
7	0xbd81513e	-0.06314324

sequential/conv1d_1/BiasAdd/ReadVariableOp f4 [16]
0	0xbe232cf0	-0.15935111
1	0xbe7ab152	-0.24481705
2	0xbe6ce658	-0.23134744
3	0xbe5e834e	-0.21729776
4	0x3e865fef	0.26245067
5	0xbe6523b9	-0.22376908
6	0xbe198651	-0.14992644
7	0xbe8cc7b1	-0.27496102
8	0xbd45f9b3	-0.048333835
9	0xbdc760dd	-0.09735272
10	0xbdc41c91	-0.09575761
11	0xbe89d485	-0.26919952
12	0xbe74b0ac	-0.2389552
13	0x3c27bef1	0.010238395
14	0xbe9cb092	-0.30603462
15	0xbd1093ca	-0.035297193

sequential/conv1d/Conv1D f4 [8, 1, 3, 20]
0	0xbb3a8060	-0.0028457865
1	0x3e060d29	0.13090958
2	0xbe0cb1c2	-0.13739684
3	0xbdbc9413	-0.092079304
4	0xbece5c15	-0.40304628
5	0xbe1d150d	-0.15340061
6	0x3e1889e1	0.14896347
7	0xbdd95d85	-0.106135406
8	0xbe5666ca	-0.20937648
9	0xbe24e122	-0.16101506
10	0x3d25391d	0.04033767
11	0xbe728ac6	-0.2368575
12	0x3e25749d	0.16157766
13	0xbe6cb908	-0.23117459
14	0xbe81875d	-0.25298586
15	0x3d8aa2ae	0.0676931
16	0x3af302a8	0.001854022
17	0x3d376b08	0.044779807
18	0x3d828bd3	0.063743256
19	0xbe5c45d7	-0.21511017
20	0xbdc4e327	-0.09613638
21	0xbde828f9	-0.1133594
22	0xbdc347e6	-0.09535198
23	0xbe2a89de	-0.16654155
24	0xbe485e09	-0.19567122
25	0xbefe2f9b	-0.49645695
26	0xbf25bb06	-0.647385
27	0xbf7d752e	-0.99006927
28	0xbf1d95c3	-0.61556643
29	0xbf761e96	-0.9614042
30	0xbf819f9a	-1.0126832
31	0xbf31ceef	-0.6945638
32	0xbf345539	-0.7044254
33	0xbf631703	-0.8870699
34	0xbf17bc84	-0.59272027
35	0xbf489c21	-0.78363234
36	0xbeb53c93	-0.35397777
37	0xbeae4bf4	-0.34042323
38	0x3c515ad8	0.0127780065
39	0x3e1153d8	0.1419214
40	0x3dc39c0c	0.09551248
41	0x3debfaab	0.115224205
42	0xbea4ae4c	-0.32164228
43	0x3da1d96e	0.079027995
44	0xbe3e573c	-0.18587965
45	0xbe2de16c	-0.16980523
46	0x3e9eaf5d	0.30993167
47	0x3e37addd	0.17937417
48	0xbd69edc1	-0.057111505
49	0xbdc60298	-0.096684635
50	0x3e7b550b	0.2454416
51	0x3e90dfd1	0.28295758
52	0xbe6ae5db	-0.22939245
53	0x3e8f216a	0.2795518
54	0x3e42300d	0.18963642
55	0x3e87eb23	0.26546583
56	0x3ea9caeb	0.33162627
57	0x3e987eff	0.2978439
58	0x3e12b581	0.14327051
59	0x3e8b3500	0.27188873
60	0xbf354605	-0.70809966
61	0xbefd1f1f	-0.49437806
62	0xbcf79835	-0.030223945
63	0x3ed8e556	0.4236247
64	0x3d415fdd	0.047210563
65	0x3ef202db	0.47267804
66	0xbdc3767a	-0.09544082
67	0x3e36894f	0.17825817
68	0x3cecc628	0.028903082
69	0xbe0dd5f9	-0.13851155
70	0xbecf3e35	-0.40477148
71	0xbdf3861c	-0.11890814
72	0x3f20a8cb	0.6275756
73	0x3e1cf963	0.15329508
74	0x3eee3879	0.4652746
75	0x3e2574fa	0.16157904
76	0xbe0d665a	-0.13808575
77	0xbdcd8e01	-0.10036851
78	0x3e89f219	0.26942518
79	0x3eb8b3c8	0.36074662
80	0x3d713458	0.05888781
81	0xbe1d748d	-0.15376492
82	0x3e8903ac	0.26760614
83	0xbe460b71	-0.19340302
84	0xbebdd0f0	-0.3707347
85	0xbf26f541	-0.6521798
86	0xbef8ece5	-0.48618236
87	0xbdd3a18a	-0.103335455
88	0x3d380c34	0.044933513
89	0x3e7e51e3	0.24835925
90	0x3dbaa272	0.09113015
91	0xbeb74316	-0.3579337
92	0xbd9305bf	-0.0717883
93	0x3e50b933	0.20383148
94	0x3e82e737	0.25567028
95	0x3ecb14be	0.39664263
96	0x3d8a0941	0.06740046
97	0xbe4805d4	-0.19533473
98	0xbe784819	-0.24246253
99	0xbf2ec331	-0.6826659
100	0xbe8a9699	-0.27068022
101	0xbe92eb03	-0.28694925
102	0xbe1efe55	-0.15526707
103	0x3ea58211	0.32325795
104	0x3e8fb1e0	0.28065395
105	0x3f084f2f	0.53245825
106	0x3e9f279d	0.3108491
107	0x3e3e2b53	0.18571214
108	0x3d6db1f1	0.058031026
109	0xbe60c21c	-0.21949047
110	0xbec310dc	-0.380988
111	0xbc8dd08e	-0.01731136
112	0x3f1867b6	0.5953325
113	0x3e234e96	0.15947947
114	0x3bc5c916	0.006035934
115	0x3e9afc64	0.30270684
116	0x3e1643cd	0.14674301
117	0xbe4ce510	-0.20009255
118	0xbdef1dd1	-0.11675609
119	0x3ceb7f82	0.028747324
120	0x3dbb6c5a	0.09151526
121	0x3e3a26e7	0.18178903
122	0xbe9731c8	-0.29530168
123	0xbe1a7197	-0.15082394
124	0xbeab06ab	-0.33403525
125	0xbea7825a	-0.32716638
126	0xbbbb6fd2	-0.005720117
127	0x3d30c5d5	0.043157417
128	0xbe8858ae	-0.26630157
129	0xbda31dbb	-0.07964655
130	0xbcc9473e	-0.024570104
131	0xbeb33967	-0.35004732
132	0xbbe4c91d	-0.0069819824
133	0xbecb6899	-0.3972824
134	0xbe999eaf	-0.30003878
135	0x3cfcd43f	0.030862926
136	0x3cdee3b6	0.02720819
137	0xbe9577d8	-0.29192996
138	0x3d8c2ab4	0.068440825
139	0xbcbe85ee	-0.023257222
140	0x3e81eb5d	0.2537488
141	0xbcadfd8b	-0.021239063
142	0xbc5c3acf	-0.013441755
143	0x3d49323b	0.04912017
144	0x3df5ba91	0.11998475
145	0xbe4417e4	-0.19149739
146	0xbe8d89b4	-0.27644122
147	0xbea73691	-0.32658818
148	0xbd90e8d8	-0.070756614
149	0xbe88d8db	-0.26727948
150	0xbe224797	-0.15847622
151	0xbac84de1	-0.0015281999
152	0xbe9d7711	-0.30754903
153	0x3ddb2ba3	0.107016824
154	0x3e3a140b	0.18171708
155	0xbe75dc9d	-0.24009939
156	0x3d5aeb34	0.053446963
157	0xbe9328e7	-0.28742144
158	0xbe0728fd	-0.1319923
159	0xbe549cf9	-0.20763005
160	0xbc4ad37d	-0.012379524
161	0xbdbcecf0	-0.0922488
162	0xbdb5bac0	-0.0887351
163	0xbe84d2f4	-0.25942194
164	0xbdae7ac4	-0.085195094
165	0xbdf8f331	-0.1215576
166	0xbd049bfc	-0.03237532
167	0xbe8a43b4	-0.27004778
168	0x3d9ccd97	0.07656401
169	0xbeb065bb	-0.34452614
170	0x3dfb43eb	0.12268814
171	0xbebdf2b2	-0.37099224
172	0xbe8cdcb4	-0.27512133
173	0xbdb82a72	-0.08992471
174	0x3df6d612	0.120525494
175	0x3c89cc1a	0.016820956
176	0xbec1374c	-0.377375
177	0xbe88ff84	-0.26757443
178	0x3d60e131	0.05490226
179	0x3da1e1dd	0.07904408
180	0xbe459a09	-0.19297041
181	0x3d9d48ec	0.07679924
182	0x3ed03e74	0.40672648
183	0xbea43fc9	-0.32079914
184	0x3d81e381	0.06342221
185	0xbf23b8ac	-0.6395366
186	0xbe34d563	-0.17659526
187	0xbe818832	-0.2529922
188	0x3ed5c07e	0.41748422
189	0x3e5aa009	0.21350111
190	0x3ea222f2	0.31667286
191	0xbb812fb5	-0.0039424547
192	0xbce3bb72	-0.027799342
193	0x3c38c8e5	0.011278366
194	0xbb9cf11b	-0.004789484
195	0x3db61f9c	0.08892748
196	0x3f091b94	0.53557706
197	0x3e3d859e	0.18508002
198	0x3d9a072b	0.075208984
199	0xbe2b3411	-0.1671908
200	0xbd8f5ea7	-0.070004754
201	0x3e42d266	0.19025573
202	0x3e9958d8	0.29950595
203	0x3e28baac	0.1647746
204	0xbded33d4	-0.11582151
205	0x3d61ab8b	0.055095237
206	0x3e22774d	0.15865822
207	0xbe9622e7	-0.29323503
208	0x3e93a162	0.28834063
209	0x3e5861a8	0.21131003
210	0x3d7d46c2	0.061835058
211	0x3e035685	0.12825973
212	0x3ed8741d	0.42276087
213	0x3e8045de	0.25053304
214	0x3e1a5981	0.15073206
215	0x3e19a58c	0.15004557
216	0xbd7fc9a5	-0.062448163
217	0xbdce4b78	-0.10072988
218	0xbeba9dc6	-0.36448497
219	0x3dec4c8f	0.1153804
220	0xbe9dec31	-0.30844262
221	0xbdea5a3d	-0.11442993
222	0x3ea31e90	0.31859255
223	0xbe4636de	-0.19356868
224	0xbdba44e8	-0.09095174
225	0xbefc3649	-0.49260166
226	0xbe49d576	-0.19710335
227	0xbec38111	-0.38184407
228	0x3ee968d2	0.45587784
229	0x3f15adae	0.5846814
230	0x3e27fa64	0.1640411
231	0x3e1710d1	0.14752509
232	0xbdb15c73	-0.086602114
233	0xbe761771	-0.2403238
234	0x3e0c6594	0.13710624
235	0xbd17768b	-0.036978286
236	0x3f0b7bdf	0.5448589
237	0x3ea9cb4a	0.3316291
238	0xbcc08038	-0.02349864
239	0xbdb3b992	-0.08775629
240	0x3c91bc0f	0.017789869
241	0xbeaf97dc	-0.34295547
242	0xbe6eb519	-0.23311271
243	0x3ddba4d2	0.10724796
244	0xbeb24c8c	-0.34824026
245	0xbe0e74df	-0.1391177
246	0xbe253753	-0.16134386
247	0x3d3fd203	0.046831142
248	0xbe74680f	-0.2386782
249	0xbe721cb0	-0.23643756
250	0xbedfc5b0	-0.4370551
251	0xbdb56dbc	-0.08858821
252	0xbd896c47	-0.067101054
253	0xbdbf6349	-0.09345109
254	0xbe80a422	-0.25125223
255	0x3cc1418d	0.023590827

sequential/conv1d_1/Conv1D f4 [16, 1, 3, 8]
0	0x3e184320	0.14869356
1	0x3db414cd	0.0879303
2	0x3ec68067	0.38769838
3	0xbd0d6af1	-0.034525815
4	0xbdada510	-0.08478749
5	0xbe3426f3	-0.17592983
6	0x3e4420e4	0.19153172
7	0x3e15bd90	0.14623094
8	0xbd6b01cc	-0.05737476
9	0x3dfe967b	0.124310456
10	0x3dca789e	0.09886287
11	0xbe158185	-0.14600189
12	0xbeaa57a3	-0.33269987
13	0xbc1745d8	-0.009232961
14	0x3f2a0629	0.6641565
15	0xbe834411	-0.25637868
16	0x3dfe91ba	0.12430139
17	0x3e659a31	0.224221
18	0x3e54116e	0.20709774
19	0xbdc54fc3	-0.09634354
20	0xbefc2d0c	-0.49253118
21	0xbd30143d	-0.04298805
22	0x3f5b3b16	0.85637033
23	0x3db2ae86	0.08724694
24	0xbe5a38d9	-0.21310748
25	0x3df69877	0.12040799
26	0xbdb9a0ea	-0.09063895
27	0x3ecb17ba	0.3966654
28	0x3df16c96	0.11788289
29	0xbee7342b	-0.45156989
30	0xbf751220	-0.9573078
31	0x3d9e9738	0.077436864
32	0xbe4be0cf	-0.19909976
33	0xbd3f9c26	-0.046779774
34	0xbe8485b1	-0.25883248
35	0x3d0a5367	0.033770945
36	0x3e383233	0.179879
37	0xbec0d5ce	-0.3766312
38	0xbf3d28d9	-0.73890454
39	0x3e7411d4	0.23834926
40	0x3e1e2eab	0.1544749
41	0x3da9e7ce	0.08296166
42	0xbd63c7d0	-0.055610478
43	0xbef4d42f	-0.47818133
44	0xbe29c479	-0.16578855
45	0xbf1c5075	-0.6106027
46	0xbf473be7	-0.7782578
47	0xbcab8f90	-0.02094248
48	0xbe2342cf	-0.15943454
49	0x3d927b8b	0.0715247
50	0xbe83e9d4	-0.25764334
51	0x3d13eb3a	0.036113
52	0x3d8f3f4e	0.06994496
53	0xbf4f10e9	-0.8088518
54	0xbf8bf33c	-1.0933604
55	0x3da4575d	0.08024476
56	0x3e4d83c3	0.20069794
57	0x3d41395e	0.04717385
58	0x3dbfe57c	0.093699425
59	0x3eb1a363	0.34694967
60	0x3e76c531	0.2409866
61	0xbf81a70c	-1.0129104
62	0xbf68c14b	-0.9091994
63	0x3e792f35	0.24334414
64	0xbe9b54b2	-0.30338055
65	0x3e04b15f	0.12958287
66	0x3ced77f5	0.028987864
67	0xbe4fa8c5	-0.20279224
68	0xbdf34ab5	-0.118794836
69	0xbf4d3a9b	-0.8016755
70	0xbf2df2ee	-0.67948806
71	0xbd47e4fd	-0.048802365
72	0x3dd11291	0.102086194
73	0xbe1b7f66	-0.15185317
74	0xbcfc3e50	-0.030791432
75	0xbd5b5776	-0.053550206
76	0x3e2841ef	0.16431402
77	0xbf436fd4	-0.7634251
78	0xbfb4ae8d	-1.4115769
79	0x3df26719	0.118360706
80	0xbd0f2263	-0.034944903
81	0xbd04ccbc	-0.032421812
82	0xbe416ca8	-0.18889105
83	0x3ed82d1b	0.42221913
84	0x3df20dc8	0.11819035
85	0xbfa01b89	-1.2508403
86	0xbfb300d3	-1.3984627
87	0x3d1402e5	0.036135573
88	0xbe726df3	-0.23674755
89	0x3df44730	0.119276404
90	0xbe68fd6d	-0.22752924
91	0xbc56a229	-0.013100185
92	0x3de9ba4b	0.11412486
93	0xbf32a634	-0.69784856
94	0xbf532d50	-0.82491016
95	0x3df1f5bd	0.11814449
96	0xbea810e2	-0.3282538
97	0xbdf1df90	-0.11810219
98	0xbc897ae0	-0.016782224
99	0xbe1027db	-0.14077704
100	0x3eca9aa7	0.39571115
101	0xbd7010cb	-0.058609765
102	0xbf1f77ae	-0.6229199
103	0x3dc7be50	0.09753096
104	0xbe9f26cc	-0.31084287
105	0xbdbe7eb5	-0.09301511
106	0xbd3a7960	-0.04552591
107	0xbe048ce4	-0.1294437
108	0x3eb1d9c9	0.3473647
109	0x3ef28f91	0.47375157
110	0xbed8215a	-0.42212945
111	0xbc9894d9	-0.018625664
112	0x3cec6bdc	0.028860025
113	0x3d097a3b	0.033563834
114	0x3e8d2322	0.27565867
115	0xbdef7e9a	-0.11694069
116	0x3f29ff80	0.6640549
117	0x3f0b83c1	0.54497916
118	0xbdb26107	-0.08709913
119	0x3da51cd6	0.08062141
120	0xbd48f9e1	-0.049066428
121	0x3c87d930	0.016583055
122	0x3e39a0fe	0.1812782
123	0x3e2d1628	0.16902983
124	0xbe0968d2	-0.13418892
125	0xbe88ec4a	-0.26742774
126	0xbd841d53	-0.06450906
127	0x3e5a0a07	0.21292888
128	0xbd7d0473	-0.06177182
129	0xbdadd489	-0.084878035
130	0xbd8d71c7	-0.06906467
131	0x3d0666b3	0.032812785
132	0xbe263107	-0.1622964
133	0x3e83102b	0.25598273
134	0xbdf6a206	-0.12042622
135	0xbddfd348	-0.109289706
136	0x3c89a48c	0.016802095
137	0x3cd8f95f	0.026486097
138	0x3e1ae24b	0.15125386
139	0x3c8a0d47	0.016852034
140	0xbec343ff	-0.38137814
141	0x3e57d7be	0.21078393
142	0xbcf6f32c	-0.03014525
143	0x3e26b77b	0.1628093
144	0x3e2b9c5f	0.1675887
145	0xbd949414	-0.07254806
146	0x3d80ea14	0.06294647
147	0x3c966f71	0.018363686
148	0xbe9859df	-0.29756066
149	0xbe717981	-0.23581506
150	0xbd3fc664	-0.04682006
151	0xb82468ec	-3.9198363e-05
152	0x3d26bd13	0.04070766
153	0xbe3ade08	-0.1824876
154	0x3de57f85	0.11205963
155	0xbe8a3199	-0.26990965
156	0xbddfb015	-0.10922257
157	0xbe6105e4	-0.21974903
158	0xbd15eba4	-0.036601678
159	0x3de25f74	0.110533625
160	0xbe1e2cdd	-0.15446801
161	0xbeb3e77e	-0.35137552
162	0xbe5d2a1c	-0.21598095
163	0x3d9782fd	0.07398031
164	0xbda54234	-0.08069268
165	0xbe29e361	-0.16590644
166	0xbe85f002	-0.26159674
167	0xbe86b9c4	-0.26313603
168	0xbe2d1171	-0.16901185
169	0x3e9642cf	0.29347846
170	0x3dd15e4f	0.10223066
171	0xbd80b8d9	-0.06285257
172	0xbf34c761	-0.7061673
173	0x3e94987f	0.29022595
174	0x3f209a44	0.6273539
175	0x3dfe2fb3	0.12411442
176	0xbd44c666	-0.04804077
177	0x3e8ec9eb	0.27888426
178	0x3ea767c7	0.32696363
179	0x3d32b9aa	0.043634094
180	0xbf1bf610	-0.60922337
181	0x3e60812b	0.21924274
182	0x3f0b0389	0.5430227
183	0x3e06cc6b	0.13163917
184	0xbe2e0bef	-0.1699674
185	0x3db93f63	0.09045293
186	0xbd2df317	-0.042468157
187	0xbc7fbbc1	-0.015608729
188	0xbf0351be	-0.51296604
189	0x3cfcbff6	0.030853253
190	0x3f267865	0.6502746
191	0x3dd440e1	0.10363937
192	0x3eadab0c	0.3391956
193	0xbf204623	-0.6260702
194	0x3ecfc121	0.40577033
195	0x3d7ebfdc	0.06219469
196	0xbe8fef80	-0.28112411
197	0x3e0373ca	0.12837139
198	0xbec7f6b4	-0.39055407
199	0x3e3ff49b	0.18745653
200	0xbc5e6ba9	-0.013575473
201	0xbf37e13a	-0.71828043
202	0xbd8b76ae	-0.06809746
203	0x3dcff388	0.10153872
204	0xbea6f3ad	-0.32607785
205	0xbc7dbf8f	-0.015487566
206	0xbf302f45	-0.6882213
207	0x3e5e4d50	0.2170918
208	0x3e3cad0d	0.18425389
209	0xbf334e36	-0.70041215
210	0x3eb8d33a	0.36098653
211	0xbba1c651	-0.0049369712
212	0xbea35d83	-0.3190728
213	0x3eeb9b21	0.4601679
214	0xbedc7578	-0.43058372
215	0xbdbb041e	-0.09131645
216	0x3e9f3e9a	0.3110245
217	0xbf6bde58	-0.92136145
218	0x3e42dd92	0.19029835
219	0xbdd94773	-0.10609331
220	0xbf178e76	-0.59201753
221	0x3f0437ca	0.5164763
222	0xbe49fd95	-0.1972564
223	0x3e21d70c	0.1580469
224	0x3e18f0fb	0.14935677
225	0xbf7210bb	-0.9455678
226	0xbcfa8038	-0.030578718
227	0xbea3c64c	-0.31987226
228	0xbf004a5e	-0.50113475
229	0x3e0055d5	0.12532742
230	0xbec12d7c	-0.37730014
231	0x3d7bba29	0.061456833
232	0x3e840429	0.25784424
233	0xbf81e458	-1.014781
234	0xbdbd6316	-0.09247415
235	0xbdbef65f	-0.09324335
236	0xbf6937be	-0.9110068
237	0x3eb74fa7	0.35802957
238	0xbea5c158	-0.32374072
239	0x3e5702ee	0.20997211
240	0xbe7c4c1b	-0.24638407
241	0xbeae6352	-0.3406015
242	0xbe75c0f1	-0.23999383
243	0xbbcd63a7	-0.006267983
244	0x3d200a2f	0.03907221
245	0xbe810691	-0.25200322
246	0x3d146262	0.036226638
247	0xbda9e1c6	-0.08295016
248	0xbea2d186	-0.3180048
249	0xbe9d1c59	-0.3068569
250	0xbe2b5b71	-0.16734101
251	0xbded4a42	-0.11586429
252	0xbe1ca6fc	-0.15298074
253	0xbea365d5	-0.3191363
254	0xbe933706	-0.28752917
255	0x3d90c03e	0.07067917

sequential/y_pred/BiasAdd/ReadVariableOp f4 [5]
0	0x3dabd141	0.083895214
1	0xbec22a68	-0.37922978
2	0x3dadaaee	0.08479868
3	0x3eb828c5	0.35968605
4	0xbee066a3	-0.43828306

sequential/y_pred/MatMul f4 [5, 800]
0	0x3d955789	0.07292087
1	0xbe8c4cf3	-0.27402458
2	0xbe9cdae7	-0.3063576
3	0xbd28d5bc	-0.041219458
4	0xbd2abb2e	-0.041682415
5	0x3df35f6c	0.11883435
6	0x3deeab53	0.11653771
7	0x3cd53694	0.026027001
8	0x3ea1e298	0.3161819
9	0x3e504315	0.2033809
10	0xbd6ee112	-0.058320113
11	0xbca5ddb8	-0.020247325
12	0xbc126c22	-0.008936914
13	0x3e4e9008	0.20172131
14	0xbe45b540	-0.19307423
15	0xbe0cd328	-0.13752425
16	0x3e1c9bee	0.15293857
17	0xbdec8d59	-0.115503974
18	0xbe322ee8	-0.17400706
19	0xbce64159	-0.028107332
20	0xb9c7da28	-0.00038118777
21	0x3dad9d29	0.084772415
22	0x3d631674	0.055441335
23	0x3e250a5c	0.16117233
24	0x3eb8c737	0.3608949
25	0x3e3c17c9	0.18368448
26	0x3d4ba578	0.04971835
27	0xbd646fdc	-0.05577074
28	0xbc24a16a	-0.01004825
29	0xbd911c0b	-0.07085427
30	0xbe0a44f7	-0.1350287
31	0xbf35b46a	-0.70978415
32	0xbbbdf0d6	-0.005796532
33	0xbd3924a0	-0.045200944
34	0xbe8396a7	-0.25700876
35	0xbe33c68c	-0.17556208
36	0xbd020ebe	-0.03175234
37	0xbb99ff55	-0.0046996274
38	0x3cba52db	0.022744587
39	0x3d7d5079	0.061844323
40	0x3d5cb5dd	0.053884376
41	0x3e4bef00	0.1991539
42	0xbd60a80b	-0.05484776
43	0x3dd3ca56	0.10341327
44	0xbcba3247	-0.022729052
45	0x3d89c880	0.067276955
46	0xbe22bb57	-0.15891777
47	0xbf8ad9c3	-1.0847706
48	0xbe852081	-0.2600136
49	0xbde07f67	-0.109618
50	0xbc67d94a	-0.014150927
51	0xbe4cdff3	-0.20007305
52	0xbc3496a7	-0.011022246
53	0x3e884793	0.26617107
54	0x3b838e1a	0.0040147426
55	0x3c9267ac	0.0178717
56	0xbe1cdedd	-0.1531939
57	0x3c25a0e8	0.010109164
58	0xbd53c8ce	-0.051705174
59	0x3d237f23	0.03991617
60	0xbc20a34b	-0.009804557
61	0x3df31bf3	0.11870565
62	0xbdc6fb5e	-0.09715913
63	0xbf5e012b	-0.8672053
64	0xbe6de6fc	-0.23232645
65	0xbe1c66df	-0.15273617
66	0xbe754830	-0.23953319
67	0xbe1a201e	-0.15051314
68	0xbd46a035	-0.04849263
69	0xbd04a91b	-0.032387834
70	0xbd65dfe3	-0.05612172
71	0x3cf53a95	0.02993516
72	0x3e09b9bc	0.13449758
73	0x3dd39ea8	0.10332996
74	0xbde49e11	-0.11162961
75	0x3ca0aa20	0.019612372
76	0x3dab6923	0.083696626
77	0xbcb68b4e	-0.022283223
78	0xbe639319	-0.22224082
79	0xbdf18079	-0.11792082
80	0xbd3e61a1	-0.046479825
81	0xbecf083d	-0.40435973
82	0xbe9e60e8	-0.3093331
83	0xbdd52c48	-0.104088366
84	0xbd9f3372	-0.07773484
85	0xbd211c8d	-0.03933387
86	0x3cc36f08	0.023856655
87	0xbd14f743	-0.03636862
88	0x3e4356c7	0.19076072
89	0xbd181d10	-0.03713709
90	0x3e3e419c	0.18579715
91	0xbe0f2ff6	-0.1398314
92	0xbca1c893	-0.019748962
93	0xbc478fba	-0.012180263
94	0xbe723fe2	-0.23657182
95	0xbd855b98	-0.06511611
96	0xbe0c7761	-0.13717414
97	0xbea29e93	-0.31761608
98	0xbe236a03	-0.15958409
99	0xbe58a231	-0.21155621
100	0xbe3e7f8f	-0.18603347
101	0xbd39c82d	-0.045356918
102	0xbc611511	-0.013737933
103	0xbc97bbd5	-0.018522182
104	0x3eb0e0b9	0.3454645
105	0x3bac8082	0.0052643428
106	0x3c48e199	0.012260818
107	0x3d6c5fae	0.057708435
108	0x3e348c15	0.17631562
109	0x3d9a39c9	0.07530553
110	0xbeaf43a9	-0.34231308
111	0xbdb27417	-0.08713549
112	0x3e63d017	0.22247349
113	0xbd9a1efd	-0.07525442
114	0xbca45e53	-0.020064509
115	0xbd892748	-0.066969454
116	0x3b55036a	0.0032503256
117	0x3da29b2e	0.079397544
118	0x3e1b13de	0.15144297
119	0x3cb0c42c	0.021577917
120	0x3e10e8e5	0.14151342
121	0x3e5a4f61	0.21319343
122	0x3d2fca1d	0.04291736
123	0xbb783ada	-0.0037876875
124	0xbd53c987	-0.051705863
125	0xbc982394	-0.018571652
126	0xbcfeded2	-0.031112108
127	0xbe2f2c49	-0.17106737
128	0x3c3fb3f3	0.011700618
129	0xbe04e451	-0.12977721
130	0x3cbe0300	0.02319479
131	0x3e412c82	0.18864635
132	0xbd32f2af	-0.043688472
133	0xbd0b793f	-0.034051176
134	0x3c902c85	0.017599354
135	0x3e49ffba	0.19726458
136	0x3eb0b7c0	0.3451519
137	0x3eaa239b	0.3323029
138	0x3db02f54	0.08602777
139	0x3d49a95c	0.04923378
140	0x3d8624c2	0.0654998
141	0x3cfb5332	0.030679319
142	0x3d75bdb4	0.059995368
143	0xbd287251	-0.041124646
144	0x3d9567ec	0.07295212
145	0xbdcabde5	-0.09899501
146	0xbe514c3e	-0.2043924
147	0xbdc021cf	-0.093814485
148	0x3b2421e4	0.0025044614
149	0x3d9cea86	0.07661919
150	0x3d1fbb29	0.03899685
151	0x3e35ff89	0.1777326
152	0x3e0e09aa	0.13870874
153	0x3dc6aea1	0.097012766
154	0xbd8267ef	-0.0636748
155	0xbd3ed73f	-0.046591993
156	0xbdbca59b	-0.09211274
157	0x3dc788bc	0.09742877
158	0xbc660606	-0.014039522
159	0xbe9f7729	-0.311456
160	0xbe074ae4	-0.13212162
161	0xbd0c2ffa	-0.03422544
162	0x3bd3dfaf	0.006465874
163	0xbe30d3d3	-0.17268305
164	0xbbea2297	-0.0071452367
165	0x3ced49bd	0.028965825
166	0x3d7f585a	0.062340118
167	0x3dcdff98	0.10058516
168	0xbe8f86dd	-0.2803258
169	0x3dfe8724	0.1242812
170	0x3d830b2a	0.06398614
171	0x3a02ade6	0.00049850193
172	0xbba933ab	-0.00516363
173	0x3e50728c	0.20356196
174	0xbe149836	-0.14511189
175	0x3dd4a968	0.10383874
176	0xbe357edd	-0.17724176
177	0xbd7f24e7	-0.062291052
178	0xbe8325d3	-0.25614795
179	0x3df5caaa	0.12001546
180	0x3dd8f8d6	0.10594337
181	0x3df238fa	0.11827274
182	0xbca9a83b	-0.020710101
183	0x3d715a9e	0.05892431
184	0x3e363f65	0.1779762
185	0x3e4b421c	0.19849437
186	0xbc8a4986	-0.016880762
187	0x3d813cd7	0.063104324
188	0x3dbef094	0.093232304
189	0x3d84746f	0.064675204
190	0xbd5f32c2	-0.054491766
191	0xbf02bdd1	-0.51070887
192	0x3e8bfa4f	0.27339408
193	0xbe872dbb	-0.26402077
194	0xbe24f9de	-0.16110942
195	0xbe854618	-0.2603004
196	0xbc4037c7	-0.011732048
197	0x3e1dac94	0.15397865
198	0xbd8daa9f	-0.06917309
199	0x3da7a3fd	0.08185575
200	0xbc52869a	-0.012849474
201	0xbce10a13	-0.027470624
202	0xbcc3ce39	-0.023902046
203	0x3d9a5c4e	0.07537137
204	0xbd8024d8	-0.062570274
205	0xbcc26606	-0.02373029
206	0xbde1bb51	-0.11022056
207	0xbe6cf3e0	-0.23139906
208	0x3d020514	0.031743124
209	0x3cddcf03	0.02707625
210	0xbbc17116	-0.0059033735
211	0x3d9eef7c	0.07760522
212	0xbc8f9661	-0.017527761
213	0x3e296166	0.16541061
214	0x3d5aed01	0.05344868
215	0x3e42211b	0.18957941
216	0x3d85f935	0.06541673
217	0x3e75bf13	0.2399867
218	0xbd1f9063	-0.038956057
219	0x3e307f1b	0.17235987
220	0x3d2a8c3a	0.041637637
221	0x3d529845	0.051414747
222	0x3d4f3c6e	0.05059474
223	0xbe7fec53	-0.24992494
224	0xbe32e235	-0.17469104
225	0x3e104098	0.1408714
226	0x3e3975e7	0.18111382
227	0xbe3b4ef4	-0.18291837
228	0xbddb6bdf	-0.10713934
229	0x3e0485ca	0.12941661
230	0xbc7eb8d0	-0.015546992
231	0x3ce25e60	0.027632892
232	0x3e542acc	0.2071945
233	0x3edf0150	0.4355569
234	0xbc975d73	-0.018477177
235	0xbc868639	-0.016421424
236	0x3dca31d9	0.09872789
237	0x3d8c588f	0.06852829
238	0xbd988ed6	-0.07449119
239	0xbe413740	-0.18868732
240	0xbd4f2093	-0.050568175
241	0xbe1a570f	-0.15072273
242	0xbd9aa8ce	-0.07551728
243	0xbe884018	-0.266114
244	0xbb461c5a	-0.0030229301
245	0x3df2a766	0.11848335
246	0xbd6827ec	-0.056678697
247	0xbdb8da1d	-0.09025977
248	0x3ea1cb3e	0.31600374
249	0x3eeec096	0.46631306
250	0x3cf1d5e9	0.029520946
251	0xbd35c53f	-0.04437756
252	0x3d853c8a	0.065056875
253	0x3e1945e0	0.14968061
254	0x3b7bea7f	0.003843933
255	0xbe675281	-0.22590066
